api/tweet_sentiment_model.pt (torch, 799717 bytes, 10 tensors)

model.0.weight f4 [512, 50]
0	0x3d8b01da	0.067874625
1	0xbeaaf898	-0.33392787
2	0x3eb56772	0.35430485
3	0xbe81dfec	-0.2536615
4	0x3de1b0a9	0.110200234
5	0xbf91199f	-1.1335944
6	0x3d3c3437	0.045948233
7	0xbe9bcb4b	-0.30428538
8	0xbf32990b	-0.69764775
9	0x3ed1a9e4	0.4094993
10	0xbdbf96d1	-0.09354938
11	0xbe069b7d	-0.13145252
12	0x3ee06ad9	0.43831518
13	0x3da31e22	0.07964732
14	0xbe53afad	-0.20672484
15	0x3e99bd78	0.30027366
16	0x3fb523df	1.4151572
17	0xbf4c8b3a	-0.7989994
18	0x3d89547a	0.06705566
19	0xbe92bb66	-0.286586
20	0xbf0313b2	-0.5120193
21	0xbe554fdc	-0.20831245
22	0x3f133a3e	0.57510746
23	0xbf6bd177	-0.92116493
24	0x3f0502dd	0.51957494
25	0x3eaf6ba3	0.34261808
26	0xbc3319d9	-0.0109314555
27	0x3e993fca	0.2993148
28	0x3e5f050d	0.2177927
29	0xbee609f3	-0.44929466
30	0xbe14f8d8	-0.14548051
31	0x3eed7b7f	0.46383283
32	0xbd0bcd7e	-0.03413152
33	0x3f047357	0.51738495
34	0x3eaafd3e	0.33396333
35	0xbf0887b5	-0.5333207
36	0xbdc9d0f7	-0.0985431
37	0x3e40c377	0.18824564
38	0xbf5712a0	-0.84012794
39	0xbe911b66	-0.28341216
40	0xbe53bbe5	-0.20677145
41	0xbdf8fff9	-0.12158198
42	0x3ee009c3	0.43757448
43	0xbf1f0536	-0.62117326
44	0x3edf43ab	0.43606314
45	0x3f426c11	0.75946146
46	0xbc935f1d	-0.01798969
47	0x3f04fad7	0.5194525
48	0xbf0f817f	-0.5605697
49	0x3d80271a	0.06257458
50	0xbe14d94f	-0.14536022
51	0x3e8ad845	0.27118126
52	0xbe37b03c	-0.17938322
53	0xbdb4cc86	-0.08828072
54	0x3d371840	0.04470086
55	0xbe112792	-0.14175251
56	0x3ed158be	0.40888017
57	0x3edbce59	0.42930868
58	0x3de97fac	0.114013046
59	0xbf03d898	-0.5150237
60	0x3ebd54c8	0.36978745
61	0xbe0f0a64	-0.13968807
62	0x3e500c07	0.20317088
63	0x3ed6ecc0	0.419775
64	0xbe4e83cd	-0.20167466
65	0x3cf3fc0c	0.029783271
66	0x3cb16cbf	0.0216583
67	0x3f1f65bc	0.6226461
68	0x3e001a3a	0.12510005
69	0x3e19e754	0.15029651
70	0x3ea84bea	0.32870418
71	0x3ed71a01	0.42012027
72	0x3bc3e2b9	0.005977955
73	0xbde90c83	-0.113793395
74	0xbdd88a4b	-0.10573252
75	0x3dbd6384	0.09247497
76	0x3dd2fbae	0.1030191
77	0x3e09e0cf	0.13464664
78	0xbe12886d	-0.14309855
79	0x3c9111f7	0.017708762
80	0x3c0b173c	0.008489426
81	0x3e26278c	0.16226023
82	0xbe70c4d6	-0.23512587
83	0xbe368984	-0.17825896
84	0xbe8006f1	-0.25005296
85	0x3ed64f12	0.418572
86	0x3c3ebb13	0.011641282
87	0xbebc4041	-0.36767772
88	0x3ea8dda8	0.3298161
89	0x3eb5d165	0.35511318
90	0xbe7fbe0c	-0.24974841
91	0xbdb6ad23	-0.08919742
92	0x3efbbc20	0.49166965
93	0x3dbe8b3f	0.09303903
94	0xbda1ed5f	-0.07906603
95	0xbe829b26	-0.25508994
96	0xbe92d5e6	-0.28678817
97	0x3d86a041	0.06573535
98	0x3e2ce231	0.1688316
99	0xbf7081c0	-0.9394798
100	0x3e2a1e6d	0.16613169
101	0x3e2b05d7	0.16701446
102	0x3ee56417	0.44802925
103	0x3e0255a0	0.12727976
104	0xbe19f94d	-0.15036507
105	0x3e15a68b	0.14614312
106	0xbdf94489	-0.12171275
107	0xbf565ea8	-0.83738184
108	0x3ec0dc29	0.3766797
109	0x3ed6f3ef	0.41982982
110	0xbebb35d8	-0.36564517
111	0x3e5807dc	0.21096748
112	0xbb7444b2	-0.003727239
113	0xbde17630	-0.110088706
114	0xbdc8712b	-0.0978721
115	0x3e9ef098	0.31042933
116	0xbdc76f98	-0.09738082
117	0x3eb3c1f8	0.35108924
118	0x3e4cbdb0	0.19994235
119	0x3db37f63	0.087645315
120	0x3f1d8507	0.6153111
121	0x3e264a40	0.16239262
122	0xbe313b90	-0.17307878
123	0xbf0870ce	-0.53297126
124	0xbf14e8ef	-0.5816793
125	0x3e4ecb77	0.20194803
126	0xbeec3d2f	-0.4614043
127	0x3e53a224	0.2066732
128	0x3e3c9265	0.1841522
129	0x3eae24e6	0.34012526
130	0xbe37e9d4	-0.17960292
131	0x3e0660e0	0.13122892
132	0xbce68631	-0.02814016
133	0x3f27d2f9	0.65556294
134	0xbdbfe557	-0.09369915
135	0xbe0cbdb2	-0.13744238
136	0xbf26e238	-0.6518893
137	0x3d1cd2c6	0.038286947
138	0xbe34499c	-0.17606205
139	0xbe3c70ee	-0.18402454
140	0x3f321e9a	0.69577944
141	0xbc33e9ba	-0.010981018
142	0x3f2030db	0.6257455
143	0xbf172a58	-0.59048986
144	0xbd5d545d	-0.054035533
145	0xbdc44f44	-0.09585431
146	0xbe24ac84	-0.16081434
147	0x3f2e9647	0.68198055
148	0xbec8a89d	-0.39191142
149	0x3e9047da	0.28179818
150	0x3f0dc85c	0.5538385
151	0xbd72ff8d	-0.059325743
152	0xbe17d26d	-0.14826365
153	0xbe351e40	-0.1768732
154	0xbe7fed92	-0.2499297
155	0xbe90ad4a	-0.2825721
156	0x3ed4b3f2	0.41543537
157	0x3e08563d	0.13314147
158	0x3f2d422f	0.67679113
159	0x3eae9796	0.34100026
160	0xbd2111a0	-0.03932345
161	0xbe308f7a	-0.17242232
162	0x3de7f005	0.11325077
163	0x3e8292a8	0.25502515
164	0xbf00012e	-0.500018
165	0x3d871584	0.06595901
166	0x3e1357b1	0.1438892
167	0x3c85edae	0.016348686
168	0x3d50cdb4	0.050977424
169	0x3ee737ee	0.45159858
170	0xbf14f875	-0.58191615
171	0xbea333dd	-0.31875506
172	0x3de21d85	0.11040787
173	0x3d1869f8	0.037210435
174	0xbea597d7	-0.32342407
175	0x3ea950dd	0.33069506
176	0xbe6dfb00	-0.2324028
177	0x3e4b2ebb	0.19842045
178	0x3e73194f	0.23740123
179	0x3d88a1dd	0.06671498
180	0xbedfee2c	-0.43736398
181	0xbe8d0804	-0.27545178
182	0xbe85a8cc	-0.26105344
183	0x3e2a06c7	0.16604148
184	0x3df862f5	0.121282496
185	0x3e9e8a43	0.3096486
186	0x3ddd20f6	0.107973024
187	0xbe32f9bb	-0.17478077
188	0xbb13a3ad	-0.0022527978
189	0x3f0feed9	0.5622383
190	0x3d60addf	0.054853316
191	0x3dd08bce	0.10182916
192	0x3deb532d	0.11490474
193	0xbee45bf1	-0.44601396
194	0x3df5597a	0.11979957
195	0xbcd9a562	-0.026568118
196	0xbf0e2cb3	-0.55536956
197	0xbeb4bc7e	-0.35300058
198	0xbdbdc87b	-0.09266754
199	0xbdb9b999	-0.09068603
200	0x3dc0d8da	0.09416361
201	0xbe9c62d2	-0.30544144
202	0xbf225194	-0.6340573
203	0x3d874a33	0.06605949
204	0xbce83dec	-0.02834984
205	0x3f67c2c6	0.90531576
206	0x3d54face	0.051997
207	0x3cf559b5	0.029950002
208	0xbd4e692f	-0.05039328
209	0x3e8d4a39	0.2759569
210	0x3ec13ffb	0.37744126
211	0x3d82e8a5	0.0639203
212	0xbe682cb8	-0.22673309
213	0x3eb7208a	0.35767013
214	0xbd8fcb3e	-0.07021187
215	0x3e82846a	0.2549165
216	0xbe0383a4	-0.12843186
217	0x3f26dd22	0.6518117
218	0xbe034ba3	-0.12821822
219	0x3e0687da	0.13137761
220	0x3ec1d3c7	0.37856886
221	0xbcbc2ed9	-0.022971557
222	0xbf1440be	-0.5791129
223	0xbe5fd7b4	-0.21859628
224	0xbe0addf0	-0.13561225
225	0xbe18c240	-0.1491785
226	0xbe64119c	-0.22272342
227	0x3e1f577f	0.15560721
228	0x3e787635	0.24263842
229	0x3ec76e4e	0.38951343
230	0xbdaf9227	-0.08572798
231	0xbe6082e0	-0.21924925
232	0xbbdc9ddc	-0.0067326855
233	0xbe434746	-0.19070157
234	0xbf1777c1	-0.59167105
235	0x3f2553ff	0.6458129
236	0xbf057a1c	-0.5213945
237	0x3bbb3524	0.005713122
238	0xbf111dcf	-0.5668611
239	0xbeedfe13	-0.46482906
240	0xbe9d4064	-0.3071319
241	0xbf0f0953	-0.558736
242	0xbe8bf6ee	-0.2733683
243	0xbe978bd5	-0.2959887
244	0x3d91301c	0.07089254
245	0x3ea12b22	0.3147822
246	0xbdd65a9b	-0.104665
247	0x3f11b791	0.56920725
248	0xbf12f907	-0.57411236
249	0xbed9c783	-0.42535028
250	0xbebf8058	-0.37402606
251	0xbf0112c1	-0.5041924
252	0x3e6b7979	0.22995557
253	0xbe49cb0b	-0.19706361
254	0xbdcf8211	-0.1013223
255	0x3e4f3d89	0.20238318

model.0.bias f4 [512]
0	0x3e6a58b8	0.22885406
1	0xbeb461e8	-0.35230947
2	0xbe8c6eda	-0.27428323
3	0xbdaf2d8b	-0.085536085
4	0xbe8e0b6c	-0.2774309
5	0xbeade6ef	-0.3396525
6	0xbe71e4ef	-0.23622487
7	0xbeaa192b	-0.33222327
8	0xbe453a67	-0.1926056
9	0xbcb67800	-0.022274017
10	0xbe77e176	-0.242071
11	0xbd8dd0c4	-0.069245845
12	0xbe651a76	-0.22373375
13	0xbe8b2518	-0.27176738
14	0xbe1e7b2a	-0.15476671
15	0xbeb3fe64	-0.35155022
16	0xbe8408a3	-0.2578784
17	0xbe943884	-0.28949368
18	0xbe51e87b	-0.2049884
19	0xbe84c82b	-0.25933966
20	0xbe69e559	-0.22841395
21	0xbecebeeb	-0.40380034
22	0xbebb9f7c	-0.36645114
23	0xbe2c93b3	-0.16853218
24	0xbe1ca510	-0.15297341
25	0xbeaae090	-0.33374453
26	0xbdaeb890	-0.08531296
27	0x3e23c322	0.15992406
28	0xbe244650	-0.16042447
29	0xbd479aaa	-0.048731484
30	0xbecd7689	-0.40129498
31	0xbe519402	-0.20466617
32	0xbeb5cf82	-0.35509878
33	0xbe9d82be	-0.3076381
34	0xbee03e2e	-0.4379744
35	0xbe4ad4b3	-0.19807701
36	0xbe604429	-0.21901001
37	0xbe5e8e73	-0.21734028
38	0xbe9eab9e	-0.3099031
39	0xbe16b8e0	-0.14718962
40	0xbe61514c	-0.22003669
41	0xbe71e0b0	-0.23620868
42	0xbe7a5757	-0.2444738
43	0xbeaa4396	-0.3325469
44	0xbda41f9a	-0.0801384
45	0xbe2c2939	-0.168126
46	0xbe309a4b	-0.17246358
47	0x3e78031f	0.2421994
48	0xbe2c4e52	-0.16826752
49	0xbe23d184	-0.15997893
50	0xbe43d72a	-0.19125047
51	0xbda93b01	-0.08263207
52	0xbe82d6a3	-0.2555438
53	0x3e1b9e39	0.15197076
54	0xbed68a25	-0.4190227
55	0xbe8b9c7b	-0.27267823
56	0x3eb3fdc2	0.3515454
57	0xbd04b758	-0.032401413
58	0x3ea9d978	0.33173728
59	0xbe835b45	-0.2565557
60	0xbe10bb49	-0.14133944
61	0xbe9ee851	-0.31036618
62	0xbe4c3f7f	-0.19946097
63	0xbe5ee251	-0.2176602
64	0xbe94a74f	-0.29033896
65	0xbe446986	-0.19180879
66	0xbe906fb0	-0.2821021
67	0xbe19e1c0	-0.15027523
68	0xbdb711fa	-0.08938976
69	0xbdc62f1c	-0.09676954
70	0xbea19cc5	-0.31564918
71	0xbe96cbb4	-0.29452288
72	0x3eedc753	0.46441135
73	0xbe94196b	-0.28925642
74	0xbea0bcef	-0.31394145
75	0xbe7d6762	-0.24746469
76	0xbecbf12e	-0.39832443
77	0x3e42eaff	0.19034956
78	0xbe5b501c	-0.21417278
79	0xbf1ef5a0	-0.62093544
80	0xbe844f6a	-0.25841838
81	0xbe49a4fc	-0.19691843
82	0xbd9cb66a	-0.0765198
83	0xbdda9775	-0.106734194
84	0xbec02ddb	-0.37534985
85	0xbe9fae22	-0.3118754
86	0xbea2e354	-0.31814063
87	0x3dad1eb7	0.08453124
88	0xbef50794	-0.47857344
89	0xbeb4b817	-0.352967
90	0xbe8fe9c5	-0.2810804
91	0xbe22daf8	-0.15903842
92	0xbe3ab7ad	-0.18234129
93	0xbe5642e4	-0.20923954
94	0xbec3b154	-0.38221228
95	0x3e621184	0.22076994
96	0xbe8b4984	-0.27204525
97	0xbe979cf4	-0.29611933
98	0xbdd5ad30	-0.104334235
99	0x3d877321	0.06613756
100	0x3e6022d8	0.21888292
101	0xbddfa33f	-0.109198086
102	0xbe514777	-0.20437418
103	0xbeb159c4	-0.34638798
104	0xbe296a0c	-0.1654436
105	0xbd95c14e	-0.073122606
106	0xbc8bbd51	-0.017058047
107	0x3d60658e	0.05478435
108	0xbed6672b	-0.41875586
109	0xbe723f81	-0.23657037
110	0xbe127865	-0.1430374
111	0xbe31381f	-0.17306565
112	0x3dfc9218	0.12332553
113	0x3d9f00f3	0.07763853
114	0xbe59a0a0	-0.2125268
115	0x3c0efea7	0.008727706
116	0xbe53aaa0	-0.20670557
117	0xbe48978c	-0.1958906
118	0xbed48dbf	-0.41514394
119	0x3e2a8481	0.16652109
120	0xbe8cd091	-0.27502874
121	0xbe0c7911	-0.13718058
122	0xbe826de8	-0.25474477
123	0xbde563b8	-0.112006605
124	0xbdc250f2	-0.09488095
125	0xbe765820	-0.24057055
126	0xbe0f2d4a	-0.1398212
127	0xbe3ae231	-0.18250348
128	0xbed0fedd	-0.40819445
129	0x3dc85474	0.09781733
130	0xbd3468cf	-0.044045266
131	0xbe45b304	-0.1930657
132	0xbdd73f0d	-0.10510073
133	0xbe119c24	-0.14219719
134	0xbedb12b0	-0.42787695
135	0xbe9e887c	-0.30963504
136	0xbed250f3	-0.41077384
137	0xbe486be8	-0.19572413
138	0xbeb349b2	-0.35017163
139	0xbe9c308d	-0.3050579
140	0x3d7280f9	0.05920503
141	0xbbf260bf	-0.007396787
142	0xbe0de577	-0.13857065
143	0x3c9dcaeb	0.019261798
144	0xbf03b23b	-0.51443833
145	0x3bf87cc1	0.007583231
146	0xbe1385d8	-0.14406526
147	0xbe000271	-0.12500931
148	0xbe145954	-0.14487201
149	0xbe232ffb	-0.15936272
150	0x3ec0cf45	0.37658134
151	0xbe44644d	-0.19178887
152	0xbed95e07	-0.4245455
153	0xbb84499e	-0.004037096
154	0xbeecc6b9	-0.46245363
155	0xbeafe89b	-0.3435715
156	0x3eca2d6c	0.3948778
157	0xbe1f89ad	-0.15579863
158	0xbe05d3f4	-0.13069135
159	0xbd7514f8	-0.05983445
160	0xbe921848	-0.2853415
161	0xbd95f586	-0.073222205
162	0xbe7c00cb	-0.24609677
163	0xbe332ee3	-0.17498355
164	0xbe5c26b2	-0.21499136
165	0xbe8d057e	-0.27543253
166	0xbee70ef4	-0.45128596
167	0xbe6fcefb	-0.234188
168	0xbeb6e5cd	-0.357222
169	0xbe96fc68	-0.29489446
170	0xbeaaffee	-0.33398384
171	0xbced7170	-0.028984755
172	0xbdd94093	-0.1060802
173	0xbdec5eb0	-0.11541498
174	0x3c859074	0.016304232
175	0xbe9c0255	-0.3047053
176	0xbe9a2292	-0.301045
177	0xbd6bb677	-0.05754706
178	0xbe8610bd	-0.26184645
179	0xbe22c384	-0.15894896
180	0xbe9ba70f	-0.30400893
181	0xbd1e7080	-0.038681507
182	0xbead974b	-0.3390449
183	0xbe997bda	-0.29977304
184	0x3e17e7d0	0.14834523
185	0xbd1398f6	-0.036034547
186	0x3d881f0d	0.066465475
187	0xbe9533bb	-0.2914103
188	0xbec1b937	-0.3783662
189	0xbe2805a5	-0.16408403
190	0xbd1eeae9	-0.038798247
191	0xbe82c989	-0.25544384
192	0xbe298f30	-0.16558528
193	0xbdee37d2	-0.11631741
194	0xbec213b4	-0.37905657
195	0xbe30bc61	-0.17259361
196	0xbe3f22a2	-0.18665555
197	0xbe9ae5bd	-0.302534
198	0xbe877f02	-0.26464087
199	0x3ef50c5b	0.4786099
200	0x3b59f536	0.003325773
201	0xbe4f8d8a	-0.20268837
202	0xbe5ccbf6	-0.2156218
203	0xbe94f29e	-0.29091352
204	0xbcef5a81	-0.02921796
205	0xbe35e22f	-0.17762063
206	0xbe7c6ede	-0.24651667
207	0xbe5602a5	-0.20899446
208	0x3d5a31bd	0.05327009
209	0xbdc2cfc9	-0.09512288
210	0x3e2569d4	0.16153651
211	0xbe04e43f	-0.12977694
212	0xbe944130	-0.28955984
213	0xbe3a9f24	-0.1822477
214	0xbdad599a	-0.08464356
215	0xbecb6034	-0.39721835
216	0xbe39b4e4	-0.1813541
217	0x3d21203d	0.039337385
218	0x3e86dc80	0.26340103
219	0xbe48a7f1	-0.19595315
220	0xbe4edc62	-0.20201257
221	0x3ebae9fe	0.36506647
222	0x3dcfa07c	0.10138032
223	0xbe5bd837	-0.21469198
224	0xbe3ac6f0	-0.18239951
225	0xbe69ad02	-0.22819903
226	0xbe5192a8	-0.20466101
227	0xbec0b0a0	-0.37634754
228	0x3d220e05	0.03956415
229	0x3e6d8d51	0.23198439
230	0xbea1937c	-0.31557834
231	0xbecc89d0	-0.39948893
232	0xbeb17524	-0.34659684
233	0x3cbe0ffa	0.023200978
234	0xbe734942	-0.23758414
235	0xbda13909	-0.07872207
236	0xbe5d3e86	-0.21605882
237	0xbe7d9efc	-0.24767679
238	0xbe577415	-0.21040376
239	0xbdb72886	-0.08943276
240	0xbe93e186	-0.28882998
241	0xbecb7f38	-0.39745498
242	0x3dc8584e	0.09782468
243	0xbebaf295	-0.365132
244	0xbe6dc3cf	-0.23219226
245	0xbe8d7d84	-0.27634823
246	0xbe097ce0	-0.13426542
247	0x3db44aa8	0.08803302
248	0xbd90f096	-0.07077138
249	0xbe698da1	-0.22807933
250	0xbdf7b0f1	-0.12094296
251	0xbe1d62a1	-0.15369655
252	0xbeb10666	-0.34575194
253	0xbe4f757b	-0.20259659
254	0x3e9fa6ff	0.31182095
255	0x3d5bb5a0	0.053640008

model.3.weight f4 [256, 512]
0	0xbd71dea2	-0.05905021
1	0x3efa17ad	0.48846188
2	0x3e960ac0	0.29305077
3	0x3e07c624	0.13259178
4	0xbe845fc1	-0.25854304
5	0xbe982f4c	-0.29723585
6	0xbe190abb	-0.149455
7	0x3eaf4253	0.3423029
8	0xbdf3f114	-0.119112164
9	0x3ee09ecc	0.43871152
10	0x3e2c2fec	0.16815156
11	0xbde4f786	-0.11180024
12	0xbeaedb9b	-0.3415192
13	0x3e3aa22c	0.18225926
14	0x3e259a96	0.16172251
15	0x3eb6e5d4	0.3572222
16	0x3db5969a	0.088666156
17	0xbd635fa5	-0.055511136
18	0x3ec344e4	0.38138497
19	0x3e9ec9d0	0.31013346
20	0x3d8e4272	0.06946267
21	0xbe1915dc	-0.14949745
22	0x3e3f97b7	0.18710218
23	0x3e851c0c	0.2599796
24	0x3d83c663	0.06434324
25	0x3f11213b	0.5669133
26	0xbe666a23	-0.22501425
27	0x3ea2f13b	0.3182467
28	0x3d6d5338	0.05794069
29	0x3ed1b030	0.40954733
30	0x3e67ad5c	0.22624725
31	0x3ee7e619	0.45292738
32	0xbdc0afcd	-0.09408531
33	0x3f1183ea	0.5684191
34	0x3c86b137	0.016441924
35	0x3d82185c	0.063523024
36	0x3e6d6f48	0.23186982
37	0x3dd61656	0.10453479
38	0x3e60cde6	0.21953544
39	0x3ee35852	0.4440332
40	0x3cfe5f47	0.031051291
41	0x3f12109f	0.5705661
42	0x3dc44840	0.09584093
43	0x3e8b3db2	0.27195507
44	0x3e699f7e	0.22814748
45	0xbc4302f0	-0.011902556
46	0xbe088b59	-0.13334407
47	0xbd416cf2	-0.04722304
48	0x3f6411b1	0.89089495
49	0xbc0ad38a	-0.008473286
50	0x3d215e7a	0.03939674
51	0xbca34e6b	-0.019934854
52	0x3ebc0fbc	0.36730754
53	0xbd799c4d	-0.060940076
54	0x3e9cb798	0.3060882
55	0x3e8a2c5a	0.26986963
56	0xbe4d6cfc	-0.20061105
57	0x3ea8ae89	0.3294566
58	0xbc9c8f47	-0.019111289
59	0x3e8eab5d	0.27865115
60	0x3dc1c3fa	0.09461208
61	0x3dae8fec	0.08523545
62	0xbd5316d7	-0.051535454
63	0x3eb3a6a2	0.35088068
64	0x3e1aa44b	0.15101735
65	0xbe4f1860	-0.20224142
66	0x3df2f6d3	0.11863484
67	0x3e3f56f2	0.18685511
68	0x3dbc8c38	0.09206432
69	0x3ca8403c	0.020538442
70	0x3e7096f2	0.23495081
71	0x3ead031a	0.3379143
72	0x3c2f1ac8	0.0106875375
73	0x3f06c57f	0.52645105
74	0x3e8483e6	0.2588188
75	0x3e87d23c	0.26527584
76	0x3ea47d89	0.32127026
77	0xbeb37557	-0.3505046
78	0xbd650973	-0.055917215
79	0x3df37407	0.11887365
80	0x3d7a889f	0.06116545
81	0xbe2941e0	-0.16529036
82	0x3ebdee5e	0.37095922
83	0x3d7b9f33	0.06143112
84	0xbcb9e884	-0.02269388
85	0x3e68e171	0.22742249
86	0x3edb7bb8	0.42867827
87	0xbe553c9f	-0.20823906
88	0x3c64ec72	0.013972389
89	0x3e71ab77	0.23600565
90	0x3dce008b	0.10058697
91	0x3e291e9e	0.16515586
92	0x3e75e760	0.24014044
93	0xbe1c676b	-0.15273826
94	0x3e84eed4	0.2596346
95	0x3ea33252	0.3187433
96	0x3d892429	0.0669635
97	0x3dd5f125	0.10446385
98	0xbd4c648f	-0.049900588
99	0xbda42af3	-0.080160044
100	0x3bddcbc5	0.006768676
101	0xbe8dba74	-0.27681315
102	0x3f06e6b7	0.5269579
103	0x3e3aa476	0.182268
104	0xbd23edeb	-0.040021818
105	0xbdac3b36	-0.08409731
106	0x3ef452bb	0.47719368
107	0xbd937237	-0.07199519
108	0xbdc2f94c	-0.09520206
109	0x3de4fce9	0.11181051
110	0x3e8a1957	0.26972458
111	0xbddf9420	-0.109169245
112	0xbe35f7f2	-0.17770365
113	0xbc38e799	-0.011285686
114	0x3ec49bc0	0.38400078
115	0xbe85edd8	-0.26158023
116	0x3e95c30d	0.29250374
117	0x3e629e3c	0.22130674
118	0x3c07526c	0.008259397
119	0x3d290894	0.041267946
120	0xbb6aa863	-0.0035805933
121	0x3cf0ed9f	0.029410182
122	0xbdf95be8	-0.12175733
123	0x3edf9648	0.43669343
124	0xbdcbb03b	-0.09945723
125	0x3de3a2e9	0.11115057
126	0x3c2ff062	0.010738464
127	0x3ab60e5b	0.0013889776
128	0x3ea22b8f	0.31673858
129	0xbd6040a0	-0.05474913
130	0x3e51cbbd	0.20487876
131	0x3d9213d5	0.07132689
132	0xbe213637	-0.15743338
133	0xbdd6f38f	-0.10495674
134	0x3eedafce	0.4642319
135	0xbe0e569e	-0.1390023
136	0xbd8132eb	-0.0630854
137	0x3e8c4b98	0.27401423
138	0x3e3031cc	0.17206496
139	0x3e7110f7	0.23541628
140	0xbdf10ba0	-0.117697954
141	0xbe084625	-0.13308008
142	0xbe7f306e	-0.24920818
143	0xbd65b3e9	-0.05607978
144	0x3eb83b11	0.35982564
145	0xbe444a05	-0.19168861
146	0x3eccb0eb	0.39978728
147	0x3dc51bd6	0.0962445
148	0x3e0939b7	0.13400923
149	0x3ed143a5	0.4087192
150	0xbea39507	-0.31949636
151	0x3ab75087	0.0013985791
152	0xbe2986dd	-0.16555353
153	0x3e0cbae2	0.13743165
154	0x3d85f2b2	0.06540431
155	0xbd2bb451	-0.04192001
156	0xbd3e77cd	-0.04650097
157	0xbb988c89	-0.004655425
158	0xbb056efb	-0.002036034
159	0x3ecc3091	0.39880803
160	0xbe247626	-0.16060695
161	0x3d2862f4	0.041109994
162	0x3e9ce811	0.30645803
163	0x3ebf66d0	0.37383127
164	0xbda75d1d	-0.08172057
165	0xbdc004e4	-0.09375933
166	0x3ed3f7bb	0.4139994
167	0xbd1ec0d0	-0.0387581
168	0x3e2627bc	0.16226095
169	0x3d5fe9fa	0.054666497
170	0x3e1491c1	0.14508726
171	0xbe2a8c20	-0.16655016
172	0x3f0a2d9e	0.53975856
173	0x3d41351c	0.04716979
174	0x3d11ae5a	0.035566665
175	0x3e848f53	0.25890598
176	0x3dca6b76	0.09883778
177	0x3e622c24	0.22087151
178	0x3dbdde98	0.09270972
179	0x3ecbe18b	0.39820513
180	0x3bb5ee7a	0.0055521103
181	0x3c60e1b9	0.0137256915
182	0x3daf47a8	0.08558589
183	0xbdcde82e	-0.100540504
184	0xbd0c04c5	-0.034184236
185	0x3c9cc70c	0.019137882
186	0xbe85df8a	-0.2614711
187	0x3d190e09	0.0373669
188	0xbe02245f	-0.12709187
189	0xbe1d699f	-0.15372322
190	0x3f238331	0.6387206
191	0x3e95035a	0.2910412
192	0x3df68e88	0.120389044
193	0x3e971364	0.2950698
194	0x3e8e52bd	0.277975
195	0xbcbab4a9	-0.022791224
196	0xbd8ed10d	-0.06973467
197	0x3f0785bc	0.5293844
198	0x3e36861d	0.17824598
199	0xbef43be1	-0.47701934
200	0xbe1c3854	-0.15255862
201	0x3dfbf454	0.12302461
202	0x3cce00eb	0.025146922
203	0xbeaaade7	-0.33335802
204	0xbde8866c	-0.11353764
205	0xbcdbbd87	-0.026823772
206	0x3e12daf2	0.14341334
207	0x3de93ea2	0.113888994
208	0x3b12c5cc	0.0022395728
209	0x3ed426e7	0.4143593
210	0x3d8ab84d	0.06773434
211	0xbe061457	-0.13093697
212	0x3ec3165f	0.38103005
213	0x3ed36d9a	0.41294557
214	0xbd823f4a	-0.06359728
215	0x3ec68a19	0.38777235
216	0x3e9185e9	0.28422478
217	0x3de5e153	0.11224618
218	0xbe810c4c	-0.25204694
219	0x3db316e8	0.087446034
220	0x3e91c1ef	0.28468272
221	0xbef5b2c7	-0.4798796
222	0xbe4f3b6c	-0.20237511
223	0x3e97977c	0.2960776
224	0x3e598bfa	0.21244803
225	0x3f032b59	0.5123802
226	0xbbe8e632	-0.0071075195
227	0x3e2c6b2e	0.16837761
228	0xbd9a8284	-0.07544425
229	0xbdeb5f53	-0.11492791
230	0x3d9fbaf2	0.07799329
231	0x3dfae62f	0.12250935
232	0xbd10bc7f	-0.035336014
233	0xbda5186e	-0.080613
234	0x3e26d46e	0.16291973
235	0x3ec32406	0.3811342
236	0x3f08cf81	0.53441626
237	0x3ea50761	0.32232192
238	0x3e0e23ed	0.13880892
239	0x3d932cc4	0.07186273
240	0x3ec0a4b3	0.37625656
241	0x3e8d02cd	0.275412
242	0xbe60efe7	-0.21966515
243	0x3ed6f358	0.41982532
244	0x3ea1e143	0.31617174
245	0xbd8f7430	-0.07004583
246	0x3e5977bf	0.21237086
247	0x3d842d84	0.06453994
248	0x3eca72e5	0.39540783
249	0x3ee42a31	0.4456344
250	0xbe2a2fff	-0.16619872
251	0x3e2d7ba7	0.16941701
252	0x3e771292	0.24128178
253	0x3f018b06	0.5060276
254	0xbe6accc2	-0.22929671
255	0xbe0ba3a1	-0.13636638

model.3.bias f4 [256]
0	0xbf1f8790	-0.62316227
1	0xbd0b91b8	-0.034074515
2	0xbd0dd08a	-0.034622706
3	0xbdab7b72	-0.08373155
4	0xbd54fa1a	-0.051996328
5	0xbf0df608	-0.5545354
6	0xbe0e077e	-0.13870046
7	0xbcef7458	-0.029230282
8	0xbd484f28	-0.048903614
9	0xbd997a0e	-0.07493983
10	0xbf48ec67	-0.7848572
11	0xbf04685e	-0.5172175
12	0xbe04fd93	-0.12987356
13	0x3d98cd84	0.07461074
14	0xbd80f7bc	-0.062972516
15	0xbd5a6e53	-0.05332787
16	0xbd128deb	-0.035779875
17	0xbf1056e8	-0.5638261
18	0xbd8ee6ef	-0.06977641
19	0xba0f6f56	-0.00054716074
20	0xbd8acedb	-0.06777736
21	0xbe0da770	-0.13833404
22	0xbd2b5c29	-0.041835938
23	0xbf2a3805	-0.6649173
24	0xbd8cb062	-0.0686958
25	0xbd356e8c	-0.04429488
26	0xbedb0efc	-0.4278487
27	0x3dc5221d	0.09625647
28	0xbe354905	-0.17703636
29	0xbcbd7a96	-0.023129743
30	0x3c675d4f	0.014121368
31	0xbd7f45e0	-0.062322497
32	0xbdab762b	-0.08372148
33	0xbeed99bb	-0.4640635
34	0xbd1f8d98	-0.038953394
35	0xbef781b9	-0.48341158
36	0xbd898ce7	-0.06716328
37	0xbea94193	-0.33057842
38	0xbde6980f	-0.112594716
39	0xbeba8458	-0.36429095
40	0xbef7f0b2	-0.48425823
41	0xbc701a51	-0.014654712
42	0x3e4ccdf1	0.20000435
43	0xbf0c1c59	-0.54730755
44	0xbd9a4689	-0.07532985
45	0xbc910bf6	-0.017705899
46	0xbc8bb4bd	-0.017053956
47	0xbe5b149a	-0.21394578
48	0xbe89e267	-0.26930544
49	0xbe80f2a3	-0.25185117
50	0xbd5256e4	-0.051352397
51	0xbde2a01c	-0.11065695
52	0xbd57be0a	-0.05267147
53	0xbd86b0ac	-0.06576666
54	0xbf00bab1	-0.5028487
55	0xbe687868	-0.22702181
56	0xbd8b24e8	-0.06794149
57	0xbd540752	-0.051764794
58	0xbefda491	-0.49539617
59	0xbcd49596	-0.025950234
60	0xbf1d9bd8	-0.61565924
61	0xbe07fced	-0.13280077
62	0xbe17dac1	-0.14829542
63	0xbd8c47ed	-0.06849656
64	0xbd99a3fd	-0.075019814
65	0xbf45a7eb	-0.7720935
66	0x3ca8ad86	0.020590555
67	0xbe1b6031	-0.15173413
68	0xbc7f28b5	-0.01557367
69	0xbe17387c	-0.14767641
70	0xbd74a364	-0.059726134
71	0xbd27fbb0	-0.041011512
72	0xbd18f03e	-0.037338488
73	0xbd840dc0	-0.06447935
74	0xbd88d62e	-0.066814765
75	0xbea3eb98	-0.3201568
76	0x3d47c454	0.048771217
77	0xbd8669d6	-0.06563155
78	0xbe4afbdd	-0.1982264
79	0x3e512f0e	0.20428106
80	0xbd103e35	-0.035215575
81	0xbce99bce	-0.028516676
82	0xbf1ca869	-0.61194474
83	0xbed1e64e	-0.4099602
84	0xbe046d55	-0.12932332
85	0xbea77080	-0.32703018
86	0xbd92a148	-0.07159668
87	0xbba7b5d9	-0.0051181135
88	0xbd8d45a8	-0.068980515
89	0xbd5eaa40	-0.05436158
90	0x3e24e414	0.1610263
91	0xbe020438	-0.12696922
92	0xbd7bfeff	-0.06152248
93	0xbd5ec55d	-0.05438744
94	0xbd142615	-0.03616913
95	0x3c1ecf83	0.009693029
96	0xbcbaa920	-0.022785723
97	0xbf033eaa	-0.5126749
98	0xbe02a64d	-0.12758751
99	0xbeca2b11	-0.39485982
100	0xbd3d8fac	-0.046279594
101	0xbe31c23f	-0.17359255
102	0xbd6b08e4	-0.057381526
103	0xbef2bba4	-0.47408783
104	0xbe1f455a	-0.155538
105	0xbc30a19a	-0.010780716
106	0xbdee5336	-0.11636965
107	0xbf0569f3	-0.5211479
108	0xbdccca5a	-0.09999533
109	0x3be66bb5	0.0070318826
110	0xbd8eac4b	-0.06966456
111	0xbd285e1e	-0.041105382
112	0xbe6e5880	-0.23275948
113	0xbd540a5f	-0.051767703
114	0xbf50ff2c	-0.8163936
115	0xbd99dcfa	-0.07512851
116	0xbd802831	-0.06257666
117	0xbd79aa8b	-0.060953658
118	0xbce228e4	-0.027607389
119	0xbdcb93af	-0.09940278
120	0xbe035b98	-0.12827909
121	0xbd639fff	-0.055572506
122	0xbe17a147	-0.14807616
123	0xbd24d568	-0.040242583
124	0xbf091bf1	-0.5355826
125	0xbe17e7dc	-0.14834541
126	0xbd0fa917	-0.035073366
127	0xbeb4480f	-0.35211226
128	0xbe908931	-0.2822967
129	0xbe200107	-0.15625392
130	0xbd331062	-0.043716796
131	0xbe8a710b	-0.2703937
132	0xbd5225e3	-0.051305663
133	0xbe7fc545	-0.24977596
134	0xbd4bc666	-0.049749754
135	0xbd9526cd	-0.07282791
136	0xbdebf23b	-0.11520811
137	0xbebed868	-0.3727448
138	0xbd132860	-0.035927176
139	0xbd40ee02	-0.047101982
140	0xbd23631c	-0.03988944
141	0xbded3114	-0.115816265
142	0xbe5b91a1	-0.21442272
143	0xbcf2c8ff	-0.029636858
144	0xbd88f665	-0.06687621
145	0xbdaa1dd4	-0.083064705
146	0xbf106565	-0.56404716
147	0xbc386c1a	-0.011256242
148	0xbe80a9d7	-0.25129578
149	0xbec37126	-0.38172263
150	0x3dde7232	0.10861625
151	0xbe4fe297	-0.20301281
152	0xbcbd076a	-0.023074824
153	0xbda2752b	-0.07932504
154	0xbe47e549	-0.19521059
155	0xbcfb3ce0	-0.030668676
156	0xbdaf58f0	-0.08561885
157	0xbda84ab1	-0.08217371
158	0xbd7d8c37	-0.061901297
159	0xbc8fb41c	-0.017541938
160	0xbd53c010	-0.051696837
161	0xbd691983	-0.056909095
162	0xbd758744	-0.059943452
163	0xbefbe22b	-0.4919599
164	0xbda6b131	-0.08139265
165	0xbd7e03f0	-0.062015474
166	0xbd00eae5	-0.031474013
167	0xbd04e366	-0.032443427
168	0xbd96e17b	-0.07367226
169	0xbe65acac	-0.2242915
170	0xbe63dd35	-0.22252353
171	0xbd25f4b6	-0.040516578
172	0xbe0969a6	-0.13419208
173	0xba84f1dc	-0.001014288
174	0xbcaddffa	-0.021224964
175	0xbe4dcf03	-0.200985
176	0xbd8a629f	-0.06757092
177	0xbed62ee2	-0.41832644
178	0xbd9de349	-0.07709367
179	0xbe16d65c	-0.14730209
180	0xbbdfd7c1	-0.00683114
181	0xbea489f1	-0.3213649
182	0xbd586bdd	-0.05283724
183	0xbf20dc92	-0.62836564
184	0xbd9b8a43	-0.07594731
185	0xbc482916	-0.012216827
186	0xbd7ebb20	-0.062190175
187	0xbb2369b6	-0.0024934835
188	0xbd35f77a	-0.044425465
189	0xbece64d0	-0.4031129
190	0xbd21960a	-0.03944973
191	0xbe05d77c	-0.13070482
192	0xbd43a548	-0.047765046
193	0xbccd8fd5	-0.025092999
194	0x3e6bf196	0.23041376
195	0xbd60a23f	-0.05484223
196	0xbda64b6e	-0.08119856
197	0xbd2bde55	-0.04196008
198	0xbeaa8b69	-0.33309487
199	0xbd8b58d1	-0.0680405
200	0xbd0345a5	-0.03204884
201	0xbda1b020	-0.07894921
202	0xbf3d0428	-0.73834467
203	0xbcb62972	-0.02223656
204	0xbd42069e	-0.047369592
205	0xbf12e12f	-0.5737485
206	0xbccb7354	-0.024835266
207	0xbda2b3f9	-0.07944483
208	0xbdcc3d37	-0.09972613
209	0xbd824f9c	-0.063628405
210	0xbe458208	-0.19287884
211	0x3e87c95e	0.26520818
212	0xbd948000	-0.072509766
213	0xbdc31807	-0.09526067
214	0xbd583a5c	-0.05279003
215	0xbd96175f	-0.073286764
216	0xbdc5a023	-0.09649684
217	0x3de67842	0.11253406
218	0x3c73e074	0.014885057
219	0xbdc10c94	-0.09426227
220	0xbe087c5e	-0.13328692
221	0xbe6f72e6	-0.23383674
222	0xbdc35495	-0.09537617
223	0xbd6704ee	-0.056401186
224	0xbd8d078e	-0.068862066
225	0xbd1344b3	-0.03595419
226	0x3ca05436	0.019571405
227	0xbe879c48	-0.2648642
228	0x3e394ec8	0.18096459
229	0xbd56e690	-0.052465975
230	0xbca6f976	-0.020382624
231	0xbdb2be63	-0.0872772
232	0xbd55fb29	-0.052241478
233	0xbd259c5b	-0.040432315
234	0xbccbd3c0	-0.024881244
235	0xbd18872b	-0.03723828
236	0xbd3fc38e	-0.046817355
237	0xbd75a15f	-0.05996835
238	0xbe888a7d	-0.26668158
239	0xbd958ddd	-0.07302449
240	0xbe92c605	-0.28666702
241	0xbe157660	-0.14595938
242	0xbdf3dc06	-0.119072005
243	0xbf57407d	-0.84082776
244	0xbd809d2c	-0.06279978
245	0xbd5a13f8	-0.0532417
246	0xbda270c8	-0.079316676
247	0xbefb1b7c	-0.49044406
248	0xbd662af2	-0.0561933
249	0xbca636c7	-0.020289792
250	0xbe08b5f2	-0.13350657
251	0xbef514d4	-0.47867453
252	0x3a3e6c2f	0.00072640454
253	0xbd2a18be	-0.041527502
254	0xbcd676d4	-0.026179709
255	0xbec68143	-0.38770494

model.6.weight f4 [128, 256]
0	0x3e38ee98	0.18059766
1	0x3ce62ad8	0.028096601
2	0x3c88508c	0.01663997
3	0x3c100ca0	0.008792073
4	0x3b089930	0.002084326
5	0x3e16d379	0.14729108
6	0xbe80bfb2	-0.25146252
7	0x3cbe236a	0.023210246
8	0xbd41776f	-0.04723304
9	0x3d2c11f8	0.042009324
10	0xbe6429f7	-0.22281633
11	0xbd9288fa	-0.071550325
12	0xbd1f4cf3	-0.038891744
13	0xbeb68e3d	-0.35655394
14	0xbdb20028	-0.08691436
15	0x3cb9636f	0.022630421
16	0x3a475100	0.00076033175
17	0xbdc216f7	-0.094770364
18	0xbc204da0	-0.009784132
19	0x3b089295	0.0020839323
20	0xbc97c9b8	-0.018528804
21	0xbe0f017a	-0.13965407
22	0xbd0f749d	-0.03502332
23	0x3ebf197a	0.37324125
24	0xbd6d86be	-0.05798983
25	0x3d24c04a	0.040222444
26	0x3d89bedc	0.06725857
27	0xbd875e06	-0.066097304
28	0xbe157c3c	-0.14598173
29	0x3b979fdb	0.0046272106
30	0xbd6f041a	-0.05835352
31	0x3d768c66	0.060192488
32	0xbb9cb26b	-0.0047820113
33	0x3d6e2707	0.058142688
34	0x3b6b0e00	0.00358665
35	0x3e537151	0.20648696
36	0x3ba03e01	0.004890204
37	0x3d98ec8a	0.07466991
38	0xbda2946c	-0.079384655
39	0x3dab1cfa	0.08355136
40	0x3e88d7c6	0.26727122
41	0xbd9ace18	-0.075588405
42	0xbe6bd0e8	-0.2302891
43	0x3c7e3ce9	0.015517452
44	0x3c83e044	0.01609815
45	0xbc2e0833	-0.010622072
46	0x3c7f7827	0.015592611
47	0x3cf3ad10	0.029745609
48	0xbd5676fd	-0.05235957
49	0xbe58a50f	-0.21156715
50	0xbd8c45ec	-0.06849274
51	0x3b6041dc	0.0034218943
52	0x3cddd084	0.027076967
53	0x3d08a535	0.03336068
54	0x3e91f9e9	0.2851098
55	0x3ded6a82	0.115925804
56	0x3d42c572	0.04755158
57	0xbd174120	-0.036927342
58	0x3d750f94	0.05982931
59	0x3d1ffcc8	0.03905943
60	0x3e85e663	0.26152334
61	0xbdee2f7e	-0.11630152
62	0xbc18ae3f	-0.009318887
63	0x3ca5ebad	0.02025398
64	0xbd14a704	-0.03629209
65	0x3c6a452e	0.01429872
66	0x3e7e27a9	0.24819817
67	0x3cb8024e	0.022462036
68	0xbe5636bd	-0.20919318
69	0xbcda0b11	-0.026616605
70	0x3b967196	0.004591177
71	0x3c52cd92	0.012866395
72	0x3d5457c2	0.051841505
73	0x3d58d759	0.052939747
74	0x3c8ba9d7	0.01704876
75	0x3da38f10	0.079862714
76	0xbdb3edc0	-0.087855816
77	0x3c35300a	0.011058817
78	0x3ce5bc4c	0.028043889
79	0x3dd65f81	0.10467435
80	0xbd07a1a4	-0.033113137
81	0x3d8d5f37	0.069029264
82	0xbf0160ef	-0.50538534
83	0xbd9c958d	-0.07645712
84	0xbcb40c28	-0.021978453
85	0xbe828183	-0.25489435
86	0xbca6032b	-0.020265182
87	0xbd687405	-0.05675127
88	0xbcbc7465	-0.02300472
89	0x3d2643b0	0.040591896
90	0xbddff37d	-0.109351136
91	0xbc02dc2a	-0.0079870615
92	0xbb6765ef	-0.003530856
93	0xbc80acd9	-0.01570742
94	0x3d2cab63	0.042155635
95	0xbd87477d	-0.06605432
96	0xbc50aca8	-0.012736477
97	0x3d96ad44	0.073572665
98	0xbc9d9224	-0.019234724
99	0xbd981c76	-0.074273035
100	0x3c7ecc9b	0.015551711
101	0xbe3568dd	-0.17715783
102	0x3d92b7ff	0.07164001
103	0xbe67a565	-0.22621687
104	0xbdbe1328	-0.092809975
105	0xbd2ed5b2	-0.042684264
106	0xbdaa4ad1	-0.08315051
107	0x3d9cecd3	0.07662358
108	0x3d8fac62	0.07015301
109	0xbe86a397	-0.26296684
110	0x3d5297e6	0.051414393
111	0xbd2773e6	-0.040882014
112	0xbdf16e0a	-0.117885664
113	0xbccdb451	-0.025110396
114	0x3e180e00	0.1484909
115	0x3d371b89	0.044703994
116	0x3d08905a	0.03334079
117	0xbc6e926f	-0.01456128
118	0xbd854d45	-0.065088786
119	0xbe38b34a	-0.18037143
120	0xbdc03c85	-0.09386543
121	0x3d747826	0.059684895
122	0x3eb25681	0.34831622
123	0x3d346400	0.04404068
124	0x3bacf8b7	0.0052786726
125	0x3da3b25b	0.07993003
126	0xbc6ef4d0	-0.014584735
127	0xbce68e7e	-0.028144117
128	0xbdaa97e8	-0.08329755
129	0xbd0555f7	-0.032552686
130	0xbcc61967	-0.024182035
131	0xbe3cda8e	-0.18442747
132	0xbda0fb21	-0.07860399
133	0x3e844369	0.2583268
134	0x3cf9a100	0.030472279
135	0x3bf5fa8c	0.007506674
136	0xbb65c0b0	-0.0035057478
137	0x3db9c216	0.09070222
138	0xbce28396	-0.027650636
139	0xbd0c26df	-0.034216758
140	0xbd69a9b0	-0.057046592
141	0xbddc81fc	-0.1076698
142	0xbdca9159	-0.09891004
143	0xbcdbbe91	-0.026824268
144	0x3e235b90	0.15952897
145	0x3d19a4cd	0.037510682
146	0xbcf1607b	-0.02946495
147	0xbcbc8d64	-0.023016639
148	0x3d8fd07c	0.07022187
149	0xbe3a592f	-0.18198083
150	0xbc7fa03b	-0.015602167
151	0x3dafcd4d	0.0858408
152	0xbd00b933	-0.03142662
153	0xbd47c79c	-0.048774347
154	0xbd940f19	-0.07229442
155	0xbcadf6bf	-0.021235822
156	0xbd4216c9	-0.04738501
157	0xbcf24d08	-0.029577747
158	0x3d02ab14	0.031901434
159	0xbdb33c6d	-0.0875176
160	0xbd4ecbc3	-0.05048729
161	0xbd259c7a	-0.04043243
162	0x3d3d951c	0.04628478
163	0xbcc6b11b	-0.024254372
164	0x3d87b17d	0.0662565
165	0xbc2b8c48	-0.010470457
166	0x3b1ffe31	0.0024412984
167	0x3bc0f8fe	0.005889057
168	0xbd337ab0	-0.043818176
169	0x3e965070	0.29358244
170	0xbd0a43e1	-0.03375614
171	0xbcbcf958	-0.023068115
172	0x3d0e94d8	0.034809917
173	0x3d3a8d79	0.045545075
174	0xbcef20dc	-0.029190473
175	0xbe8e628c	-0.2780956
176	0x3caa6ed8	0.020804808
177	0xbda2a91f	-0.079424135
178	0xbd3e3af0	-0.046442926
179	0xbd8ecfeb	-0.06973251
180	0xbb08b3a0	-0.0020859018
181	0x3cf558d5	0.029949585
182	0x3c02f3da	0.007992709
183	0xbdc1fbc6	-0.0947185
184	0x3cd11d51	0.025526674
185	0x3d4c341f	0.049854394
186	0xbca70830	-0.020389646
187	0xbc23b8b0	-0.009992763
188	0x3cf1f0f4	0.02953384
189	0x3e3321a2	0.17493299
190	0xbccbd3b0	-0.024881214
191	0xbd40c79e	-0.04706537
192	0xbd8381ba	-0.06421228
193	0xbd9312a7	-0.07181292
194	0xbdef185f	-0.1167457
195	0xbd5ff03d	-0.05467247
196	0x3d227a84	0.03966762
197	0xbcf5b406	-0.029993068
198	0x3ca24cac	0.01981195
199	0xbc96ddba	-0.018416274
200	0xbcac2504	-0.021013744
201	0x3d0e54f4	0.034748986
202	0xbe665c97	-0.22496258
203	0xbd5214c3	-0.05128933
204	0x3d65c96a	0.056100287
205	0x3eb3d001	0.35119632
206	0x3c55ac27	0.013041533
207	0xbbfe4a40	-0.007760316
208	0xbd85795d	-0.06517289
209	0xbccc700a	-0.024955768
210	0x3d7a5868	0.061119467
211	0x3d4d212d	0.050080467
212	0xbc57d498	-0.013173245
213	0xbe410ed2	-0.1885331
214	0xbd04a8ae	-0.032387428
215	0xbcac35af	-0.021021692
216	0xbcdd0e43	-0.02698434
217	0xbe7de6dc	-0.24795097
218	0x3d9579a8	0.07298595
219	0xbd9eefe6	-0.07760601
220	0xbcb7e59d	-0.022448355
221	0xbd67a68d	-0.05655532
222	0xbd97da6e	-0.07414709
223	0xbb5184f9	-0.0031970127
224	0xbd07122b	-0.03297631
225	0xbc736bac	-0.014857214
226	0xbebc9177	-0.3682973
227	0xbd87db04	-0.06633571
228	0xbe836326	-0.25661582
229	0x3d6b6f5e	0.057479255
230	0x3b3abb60	0.0028493032
231	0xba8f3cf5	-0.0010928201
232	0x3d1537f6	0.03643032
233	0xbb552448	-0.0032522846
234	0x3c9d6b80	0.019216299
235	0x3c86b904	0.016445644
236	0x3cdab9a4	0.026699848
237	0x3c48a0db	0.012245382
238	0x3db52fa8	0.0884698
239	0xbba69110	-0.0050832108
240	0x3e248823	0.16067557
241	0x3e8f9000	0.2803955
242	0x3cd2b523	0.025721138
243	0xbd5f9083	-0.054581176
244	0x3db235ca	0.08701666
245	0xbbf13fad	-0.007362327
246	0xbd24df30	-0.04025191
247	0xbe2b5e03	-0.16735081
248	0xbd1d5e18	-0.038419813
249	0x3d929e1b	0.071590625
250	0xbdc8ca4a	-0.098042086
251	0x3ed10d91	0.40830663
252	0xbc015793	-0.0078944145
253	0x3ccd6e81	0.025077106
254	0x3c491c59	0.012274825
255	0x3ed2392f	0.41059253

model.6.bias f4 [128]
0	0xbe964df5	-0.29356351
1	0xbe3bf715	-0.18355973
2	0x3cd28726	0.02569921
3	0xbe586187	-0.21130954
4	0xbe0709a7	-0.13187276
5	0xbeeca139	-0.46216753
6	0xbeeacf95	-0.45861498
7	0xbb7a4d4e	-0.003819305
8	0xbe332360	-0.17493963
9	0xbe39f3aa	-0.18159357
10	0xbe70241a	-0.23451272
11	0xbf15d81f	-0.585329
12	0xbe2c9de1	-0.16857101
13	0xbdbc9b2d	-0.09209285
14	0xbeb0cff1	-0.34533647
15	0x3c98b65f	0.018641649
16	0xbdeee316	-0.11664407
17	0xbdc60271	-0.096684344
18	0xbe875f75	-0.26440015
19	0xbf026b25	-0.5094474
20	0xbd8f7282	-0.070042625
21	0xbe1818d4	-0.14853221
22	0x3c5da178	0.013527267
23	0xbe1185d0	-0.14211202
24	0xbe2cfe11	-0.16893794
25	0xbe85b426	-0.26114005
26	0xbdde834c	-0.10864887
27	0xbe265a34	-0.16245347
28	0x3ecba483	0.3977395
29	0xbdd1a253	-0.10236039
30	0xbed524b3	-0.41629562
31	0xbe362beb	-0.17790191
32	0xbe85d0c7	-0.26135847
33	0xbf086b0a	-0.5328833
34	0xbf028306	-0.50981176
35	0xbe8d9f6f	-0.276607
36	0xbe0847d0	-0.13308644
37	0xbe94cd84	-0.29063046
38	0x3e03e521	0.12880374
39	0xbe54f70c	-0.20797366
40	0xbd9e4878	-0.07728666
41	0xbf155344	-0.5833018
42	0xbe81d82a	-0.25360233
43	0xbe93a5f0	-0.28837538
44	0xbe017125	-0.12640817
45	0xbe190a97	-0.14945446
46	0xbdee37cb	-0.116317354
47	0xbed07abc	-0.4071864
48	0xbf008521	-0.5020314
49	0xbd9153f1	-0.07096089
50	0xbdf34ca7	-0.11879855
51	0x3832908e	4.2573134e-05
52	0xbdce94c2	-0.10086967
53	0xbe15a335	-0.1461304
54	0xbdfa8d04	-0.12233928
55	0xbe852365	-0.26003566
56	0xbe319d3f	-0.17345141
57	0x3d7f55a4	0.062337533
58	0xbecef583	-0.40421686
59	0x394e2f55	0.00019663323
60	0xbe585134	-0.21124727
61	0xbe93adb6	-0.28843468
62	0xbe5ead9b	-0.21745913
63	0x3e3ea9c4	0.18619448
64	0xbe3712b8	-0.17878234
65	0xbe15f441	-0.14643957
66	0xbe3744ae	-0.17897293
67	0xbe981104	-0.29700482
68	0x3cc7af90	0.024375707
69	0xbebcac25	-0.36850086
70	0xbe6ebe03	-0.23314671
71	0xbe911226	-0.2833416
72	0xbe2f15dc	-0.17098182
73	0xbef2bf30	-0.4741149
74	0xbe451845	-0.1924754
75	0xbe3aa91d	-0.18228574
76	0x3cca1c05	0.024671564
77	0xbdf323fa	-0.11872096
78	0xbea598ce	-0.32343143
79	0xbe23b378	-0.1598643
80	0xbec4cd39	-0.38437822
81	0xbe8fa3bb	-0.28054604
82	0x3ea0fa7c	0.31441104
83	0xbe1f1455	-0.155351
84	0xbdce300c	-0.10067758
85	0x3b446f17	0.0029973441
86	0xbe820c70	-0.25400114
87	0x3ea6aefb	0.32555375
88	0xbe400e44	-0.18755442
89	0x3e90fba1	0.28316978
90	0xbdf25579	-0.11832709
91	0xbe322df0	-0.17400336
92	0x3dcfc4e4	0.10144976
93	0xbe17951e	-0.14802977
94	0xbeb5d4c4	-0.3551389
95	0x3e79fa22	0.24411824
96	0x3e71dd58	0.23619592
97	0xbe6962a7	-0.22791539
98	0x3d559886	0.05214741
99	0xbd7f2dd3	-0.06229956
100	0xbecc393a	-0.3988741
101	0xbdd782d6	-0.10523002
102	0x3e6e1741	0.23251058
103	0xbe5d0c5e	-0.21586749
104	0xbd7d8a13	-0.061899256
105	0xbece43a3	-0.40285978
106	0xbe1fb8a8	-0.15597785
107	0x3dc5604d	0.096375085
108	0x3e4b0f26	0.19829997
109	0x3d9aa906	0.0755177
110	0xbe0dce78	-0.13848293
111	0xbe5c4ca4	-0.21513611
112	0xbf3042c1	-0.6885186
113	0xbe256c76	-0.16154656
114	0xbe8e773b	-0.2782534
115	0xbe887177	-0.26649067
116	0xbe5aae0f	-0.2135546
117	0xbec8e1a9	-0.39234665
118	0xbe2ef0cc	-0.17084044
119	0xbe14871f	-0.1450467
120	0xbe0d43aa	-0.13795343
121	0xbd400df5	-0.04688831
122	0xbe09ac6f	-0.13444684
123	0xbe4f4497	-0.20241009
124	0x3bf180cb	0.0073700896
125	0xbe9511df	-0.29115197
126	0xbf1b3101	-0.6062165
127	0xbdcb2107	-0.09918409

model.9.weight f4 [64, 128]
0	0xbd8d39bf	-0.0689578
1	0x3bae5f4c	0.005321419
2	0xbe100581	-0.140646
3	0xbdcb49a5	-0.09926156
4	0xbdb3664a	-0.087597445
5	0x3c5200dd	0.012817589
6	0xbcbb99e0	-0.022900522
7	0xbd6f809a	-0.058472253
8	0x3d45907f	0.048233505
9	0xbd6d80ef	-0.05798429
10	0x3e37b8b4	0.17941552
11	0x3dbdcc08	0.092674315
12	0xbd8792e6	-0.066198155
13	0x3df08052	0.11743225
14	0x3e40982c	0.18808049
15	0x3a220922	0.00061811705
16	0x3c6ddffe	0.014518736
17	0xbd0d6d99	-0.03452835
18	0x3e38f84f	0.18063472
19	0xbe0bb023	-0.1364141
20	0xbcd8ab2d	-0.02644881
21	0xbdfce43b	-0.12348219
22	0x3de0242f	0.109444015
23	0x3b414e68	0.0029496197
24	0xbdcc6b5d	-0.099814154
25	0xbe253731	-0.16134335
26	0xbd8418f0	-0.06450069
27	0xbd9e9470	-0.07743156
28	0xbd0daede	-0.034590594
29	0x3e36b8d4	0.17843944
30	0x3ddc8e99	0.10769386
31	0xbe7c6413	-0.2464755
32	0x3c8663c5	0.016404996
33	0x3830440f	4.2025054e-05
34	0xbdec4a86	-0.11537652
35	0xbdb8665e	-0.090039
36	0x3cfe01a4	0.031006642
37	0x3da1265a	0.07868643
38	0xbe195d90	-0.14977098
39	0xbd41e657	-0.04733881
40	0x3b141b75	0.0022599373
41	0x3de698e2	0.11259629
42	0x3cbc8812	0.023014102
43	0xbc8d31d7	-0.01723568
44	0x3c860f49	0.01636471
45	0xbcd1255e	-0.025530513
46	0x3c6429f3	0.013926017
47	0x3c22fcfa	0.00994801
48	0xbe3cd80a	-0.18441787
49	0xbe3021e1	-0.17200424
50	0xbd63f121	-0.05564988
51	0xbd7c4d64	-0.061597243
52	0x3dbd4e5e	0.09243463
53	0x3b5fd4ba	0.0034153895
54	0xbd42bc6d	-0.047542978
55	0xbcf1eac6	-0.029530894
56	0xbb9ff19d	-0.0048810975
57	0xbe077093	-0.13226537
58	0xbe47dfdd	-0.19518991
59	0xbd168177	-0.03674456
60	0xbdcfee12	-0.1015283
61	0x3e182167	0.14856492
62	0xbd40401c	-0.04693614
63	0xbd3ea5a4	-0.046544686
64	0xbed361df	-0.41285607
65	0xbdd52002	-0.10406496
66	0xbe0bb635	-0.13643725
67	0x3d36ce91	0.04463059
68	0xbe3f3341	-0.18671896
69	0x3d0a3c40	0.033748865
70	0x3d15628c	0.036470935
71	0xbc0d9f5b	-0.00864395
72	0xbd60dcdc	-0.054898128
73	0xbdb4d389	-0.0882941
74	0xbb985aa4	-0.004649477
75	0x3d965776	0.073409006
76	0xbda789b1	-0.081805594
77	0xbdf1a0f6	-0.11798279
78	0xbdd4340c	-0.1036149
79	0xbd9c629d	-0.076359965
80	0x3de1aa5d	0.11018822
81	0x3cfac572	0.030611727
82	0xbe3a74e1	-0.18208648
83	0xbc3cb828	-0.011518516
84	0x3d9fed23	0.07808902
85	0xbd91b6fd	-0.0711498
86	0xbd46a829	-0.048500214
87	0xbddd90ee	-0.10818659
88	0xbd0c6e13	-0.034284662
89	0xbb71837d	-0.0036852055
90	0xbd489871	-0.048973504
91	0xbd180150	-0.037110627
92	0x3e29e5ca	0.16591564
93	0xbe3c5619	-0.18392219
94	0xbda898c4	-0.08232263
95	0xbd555da9	-0.052091274
96	0x3c439798	0.011937998
97	0x3bf3ab03	0.0074361577
98	0x3d55f259	0.052233074
99	0xbd5d676b	-0.054053705
100	0x3dc659c6	0.09685092
101	0xbc30af11	-0.010783927
102	0xbe3f701a	-0.18695107
103	0xbc419b17	-0.011816761
104	0xbdb883de	-0.09009527
105	0x3c475300	0.012165785
106	0x3deeb6d2	0.11655964
107	0xbe3ca727	-0.18423139
108	0xbd99dfa5	-0.0751336
109	0x3cdd6bd1	0.02702895
110	0xbdaa1d0e	-0.08306323
111	0xbd0ce939	-0.034402106
112	0x3e1e80df	0.15478848
113	0xbc9fdcd9	-0.019514488
114	0x3e0e7a7b	0.1391391
115	0xbd86973d	-0.06571815
116	0xbd009102	-0.03138829
117	0x3cbba65a	0.022906471
118	0x3cd9111a	0.026497412
119	0x3d1f63a4	0.038913384
120	0xbde7b1d2	-0.113132134
121	0xbd527abb	-0.051386576
122	0x3c74a906	0.014932876
123	0xbdb8bad7	-0.09020012
124	0x3cf0989f	0.02936965
125	0x3c9ad600	0.018900871
126	0xbcea41bd	-0.0285958
127	0xbc986658	-0.018603489
128	0xbe72fea8	-0.23729956
129	0xbca725bb	-0.020403733
130	0x3db37e6d	0.08764348
131	0xbdf6e8b8	-0.12056106
132	0x3da38c59	0.079857536
133	0x3e067f6f	0.1313455
134	0xbe094282	-0.13404277
135	0xbd1724d9	-0.036900375
136	0x3d00e931	0.03147239
137	0xbd461cea	-0.04836742
138	0x3e45cf3b	0.19317333
139	0xbdc62433	-0.09674873
140	0x3d1d22fd	0.038363446
141	0xbda1fe38	-0.079098165
142	0xbd907636	-0.07053797
143	0x3dfedf39	0.1244492
144	0xbe7f336c	-0.2492196
145	0x3b204db3	0.0024460375
146	0xbca15e42	-0.019698266
147	0x3d153ad1	0.036433045
148	0xbf31851d	-0.6934374
149	0x3e2eacaf	0.17058061
150	0xbd57ff53	-0.05273373
151	0x3d50a446	0.050937913
152	0xbccbe944	-0.024891503
153	0xbdc81cf9	-0.09771151
154	0x3d942234	0.07233086
155	0x3d75662e	0.0599119
156	0xbec15a98	-0.3776443
157	0xbe93ba9d	-0.28853312
158	0xbec41a4e	-0.3830132
159	0xbd324324	-0.04352106
160	0x3dac35c4	0.084086925
161	0x3d68d9b8	0.056848258
162	0x3e380f55	0.17974599
163	0xbe849a8c	-0.2589916
164	0xbcd0e9de	-0.025502142
165	0xbc579a37	-0.013159326
166	0xbd838fdf	-0.064239256
167	0xbdf23b80	-0.11827755
168	0x3d2b5d9e	0.041837327
169	0xbeb9f021	-0.36316016
170	0xbe9c0d20	-0.30478764
171	0xbe81b200	-0.25331116
172	0x3c248e0f	0.010043635
173	0x3d159100	0.036515236
174	0xbc96fe7a	-0.01843189
175	0xbdc77d04	-0.09740642
176	0xbe362801	-0.17788698
177	0xbe7ce258	-0.24695718
178	0x3c343276	0.010998359
179	0xbdff8838	-0.124771535
180	0xbde75bdb	-0.11296817
181	0xbe01ef0f	-0.1268885
182	0xbdf55f8c	-0.11981115
183	0x3dc61055	0.09671084
184	0xbed0199c	-0.40644538
185	0x3d805794	0.06266704
186	0xbe16f0c3	-0.14740281
187	0xb9d0fe8c	-0.00039862504
188	0xbf28260b	-0.6568305
189	0x3dcb463d	0.09925506
190	0xbc816230	-0.01579389
191	0xbf5baf27	-0.85814136
192	0xbe549c1e	-0.20762679
193	0xbe051938	-0.12997901
194	0xbcfa6743	-0.030566817
195	0x3bda848c	0.006668633
196	0x3ce82054	0.028335728
197	0xbe116a90	-0.14200807
198	0xbeb57489	-0.35440472
199	0xbdade1a7	-0.084903054
200	0xbcaa77f4	-0.020809151
201	0xbece88c0	-0.40338707
202	0x3d8fa034	0.07012978
203	0xbcb2a533	-0.021807289
204	0x3d44ee86	0.048079036
205	0x3d263f44	0.04058768
206	0xbdafea9e	-0.085896716
207	0x3d9f2679	0.0777101
208	0xbeac51d9	-0.33656195
209	0x3e0a2334	0.13489991
210	0xbe532cd2	-0.20622566
211	0xbd7090c7	-0.05873182
212	0x3d4bd18b	0.049760383
213	0x3d15c74e	0.036567025
214	0x3d696ca8	0.05698839
215	0xbf1fd60d	-0.6243599
216	0x3d4e0f28	0.050307423
217	0xbeb6b87b	-0.35687622
218	0x3dc3fd83	0.09569838
219	0xbd8d03dc	-0.06885502
220	0xbeec5e39	-0.46165636
221	0xbe044149	-0.1291553
222	0x3dfd28de	0.123613104
223	0xbf8611ea	-1.0474217
224	0x3e02325e	0.12714526
225	0x3d6f0230	0.058351696
226	0xbf4e2ec4	-0.8054011
227	0x3da3baeb	0.07994636
228	0x3dadfe2b	0.08495744
229	0xbdab90bf	-0.083772175
230	0xbdfb15c4	-0.12260011
231	0x3c502b37	0.012705616
232	0xbe413dc3	-0.18871216
233	0x3d975310	0.0738889
234	0xbec6c089	-0.38818768
235	0xbed5ccdb	-0.41757855
236	0xbf60a495	-0.8775113
237	0xbec35096	-0.3814742
238	0xbb5368c2	-0.0032258485
239	0xbd8129bd	-0.06306789
240	0xbdf642a7	-0.12024432
241	0xbde9f497	-0.11423605
242	0xbd9d17c5	-0.07670549
243	0xbd855bb0	-0.06511629
244	0xbf10de40	-0.56589127
245	0xbedfdb47	-0.43721983
246	0xbb50c0fe	-0.0031853314
247	0xbef236f1	-0.47307542
248	0xbdc2528f	-0.09488403
249	0x3cf07348	0.029351845
250	0x3dd36ba8	0.10323268
251	0x3e8f4c8a	0.27988082
252	0xbc863c3d	-0.016386146
253	0xbe9a4fe3	-0.30139074
254	0xbcb571b0	-0.022148937
255	0xbd9c974e	-0.076460466

model.9.bias f4 [64]
0	0xbe10b0b2	-0.14129904
1	0x3f2a7d71	0.6659766
2	0x3f6ed4df	0.93293566
3	0x3eb59591	0.35465673
4	0xbe91e09d	-0.2849168
5	0xbdb15012	-0.0865785
6	0xbe5451f0	-0.20734382
7	0x3e719cea	0.23595014
8	0x3e00cc25	0.12577875
9	0xbe850b38	-0.25985122
10	0xbe635351	-0.22199751
11	0x3ea5b8e6	0.3236763
12	0x3ed4ec4d	0.41586533
13	0x3dea19bd	0.114306904
14	0xbe2f558f	-0.17122482
15	0xbdef31dd	-0.116794325
16	0x3d18a725	0.037268776
17	0xbc196c9b	-0.0093642725
18	0x3ec46125	0.38355365
19	0xbe343c52	-0.17601135
20	0xbdd678c5	-0.10472254
21	0xbcc67f68	-0.024230674
22	0xbceec20a	-0.02914526
23	0xbdca622c	-0.09882006
24	0xbebdc79d	-0.37066355
25	0xbedde9cd	-0.43342438
26	0x3e0715fe	0.13191983
27	0xbdf3c67a	-0.11903091
28	0xbea1cd85	-0.3160211
29	0x3f418883	0.75598925
30	0xbe02f27f	-0.12787817
31	0xbea9a38d	-0.33132592
32	0xbe9ba8cb	-0.30402216
33	0x3e44aa5e	0.19205615
34	0xbe9c0dda	-0.30479318
35	0x3eb551c1	0.35413936
36	0xbe9f993a	-0.3117159
37	0x3ea68341	0.32522014
38	0xbe862c1c	-0.26205528
39	0xbb800788	-0.003907148
40	0xbe214b56	-0.15751395
41	0x3e861cfb	0.26193985
42	0xbe8ee547	-0.279093
43	0xbe082bc7	-0.1329795
44	0x3f35187c	0.70740485
45	0x3e0ad6c1	0.13558485
46	0x3e82bf6a	0.25536662
47	0x3e8e1daf	0.27757022
48	0x3e4def02	0.20110705
49	0x3dbce8e6	0.09224109
50	0xbeb15e39	-0.346422
51	0xbde3cdfc	-0.11123273
52	0x3f04a9f4	0.5182183
53	0xbd54c0a8	-0.051941544
54	0xbba0c961	-0.0049068187
55	0x3eedccd1	0.46445325
56	0x3d16890d	0.036751796
57	0xbe85ef43	-0.26159105
58	0xbd04acd7	-0.032391395
59	0xbe722e6a	-0.23650518
60	0x3eb662f4	0.3562237
61	0x3f2fa1b6	0.68606126
62	0xbe7c5316	-0.2464107
63	0x3f7ff108	0.9997716
